…
    "_is_full_backward_hook": None,
    "_forward_hooks": OrderedDict(),
    "_forward_hooks_with_kwargs": OrderedDict(),
    "_forward_hooks_always_called": OrderedDict(),
    "_forward_pre_hooks": OrderedDict(),
    "_forward_pre_hooks_with_kwargs": OrderedDict(),
    "_state_dict_hooks": OrderedDict(),
    "_state_dict_pre_hooks": OrderedDict(),
    "_load_state_dict_pre_hooks": OrderedDict(),
    "_load_state_dict_post_hooks": OrderedDict(),
    "_modules": OrderedDict([("vision_model", CLIPVisionModel(
  (vision_model): CLIPVisionTransformer(
    (embeddings): CLIPVisionEmbeddings(
      (patch_embedding): Conv2d(3,
        768, kernel_size=(32,
        32), stride=(32,
        32), bias=False)
      (position_embedding): Embedding(50,
        768)
    )
    (pre_layrnorm): LayerNorm((768,), eps=1e-05, elementwise_affine=true)
    (encoder): CLIPEncoder(
      (layers): ModuleList(
        (0-11): 12 x CLIPEncoderLayer(
          (self_attn): CLIPAttention(
            (k_proj): Linear(in_features=768, out_features=768, bias=true)
            (v_proj): Linear(in_features=768, out_features=768, bias=true)
            (q_proj): Linear(in_features=768, out_features=768, bias=true)
            (out_proj): Linear(in_features=768, out_features=768, bias=true)
          )
          (layer_norm1): LayerNorm((768,), eps=1e-05, elementwise_affine=true)
          (mlp): CLIPMLP(
            (activation_fn): QuickGELUActivation()
            (fc1): Linear(in_features=768, out_features=3072, bias=true)
            (fc2): Linear(in_features=3072, out_features=768, bias=true)
          )
          (layer_norm2): LayerNorm((768,), eps=1e-05, elementwise_affine=true)
        )
      )
    )
    (post_layernorm): LayerNorm((768,), eps=1e-05, elementwise_affine=true)
  )
)), ("text_model", RobertaModel(
  (embeddings): RobertaEmbeddings(
    (word_embeddings): Embedding(50265,
        768, padding_idx=1)
    (position_embeddings): Embedding(514,
        768, padding_idx=1)
    (token_type_embeddings): Embedding(1,
        768)
    (LayerNorm): LayerNorm((768,), eps=1e-05, elementwise_affine=true)
    (dropout): Dropout(p=0.1, inplace=False)
  )
  (encoder): RobertaEncoder(
    (layer): ModuleList(
      (0-11): 12 x RobertaLayer(
        (attention): RobertaAttention(
          (self): RobertaSelfAttention(
            (query): Linear(in_features=768, out_features=768, bias=true)
            (key): Linear(in_features=768, out_features=768, bias=true)
            (value): Linear(in_features=768, out_features=768, bias=true)
            (dropout): Dropout(p=0.1, inplace=False)
          )
          (output): RobertaSelfOutput(
            (dense): Linear(in_features=768, out_features=768, bias=true)
            (LayerNorm): LayerNorm((768,), eps=1e-05, elementwise_affine=true)
            (dropout): Dropout(p=0.1, inplace=False)
          )
        )
        (intermediate): RobertaIntermediate(
          (dense): Linear(in_features=768, out_features=3072, bias=true)
          (intermediate_act_fn): GELUActivation()
        )
        (output): RobertaOutput(
          (dense): Linear(in_features=3072, out_features=768, bias=true)
          (LayerNorm): LayerNorm((768,), eps=1e-05, elementwise_affine=true)
          (dropout): Dropout(p=0.1, inplace=False)
        )
      )
    )
  )
  (pooler): RobertaPooler(
    (dense): Linear(in_features=768, out_features=768, bias=true)
    (activation): Tanh()
  )
)), ("visual_projection", Linear(in_features=768, out_features=512, bias=False)), ("text_projection", Linear(in_features=768, out_features=512, bias=False))
    ]),
    "config": VisionTextDualEncoderConfig {
        "_commit_hash": null,
        "logit_scale_init_value": 2.6592,
        "model_type": "vision-text-dual-encoder",
…
